name: "VGG_ILSVRC_16"

input: "data"
input_dim: 1
input_dim: 3
input_dim: 224
input_dim: 224

layer {
	bottom: "data"
	top: "conv1_1"
	name: "conv1_1"
	type: "Convolution"
	param {
		lr_mult: 0.0
	}
	param {
		lr_mult: 0.0
	}
	convolution_param {
		num_output: 64
		pad: 1
		kernel_size: 3
	}
}

layer {
	bottom: "conv1_1"
	top: "conv1_1"
	name: "relu1_1"
	type: "ReLU"
}

layer {
	bottom: "conv1_1"
	top: "conv1_2"
	name: "conv1_2"
	param {
		lr_mult: 0.0
	}
	param {
		lr_mult: 0.0
	}
	type: "Convolution"
	convolution_param {
		num_output: 64
		pad: 1
		kernel_size: 3
	}
}

layer {
	bottom: "conv1_2"
	top: "conv1_2"
	name: "relu1_2"
	type: "ReLU"
}

layer {
	bottom: "conv1_2"
	top: "pool1"
	name: "pool1"
	type: "Pooling"
	pooling_param {
		pool: MAX
		kernel_size: 2
		stride: 2
	}
}

layer {
	bottom: "pool1"
	top: "conv2_1"
	name: "conv2_1"
	param {
		lr_mult: 0.0
	}
	param {
		lr_mult: 0.0
	}
	type: "Convolution"
	convolution_param {
		num_output: 128
		pad: 1
		kernel_size: 3
	}
}

layer {
	bottom: "conv2_1"
	top: "conv2_1"
	name: "relu2_1"
	type: "ReLU"
}

layer {
	bottom: "conv2_1"
	top: "conv2_2"
	name: "conv2_2"
	param {
		lr_mult: 0.0
	}
	param {
		lr_mult: 0.0
	}
	type: "Convolution"
	convolution_param {
		num_output: 128
		pad: 1
		kernel_size: 3
	}
}

layer {
	bottom: "conv2_2"
	top: "conv2_2"
	name: "relu2_2"
	type: "ReLU"
}

layer {
	bottom: "conv2_2"
	top: "pool2"
	name: "pool2"
	type: "Pooling"
	pooling_param {
		pool: MAX
		kernel_size: 2
		stride: 2
	}
}

layer {
	bottom: "pool2"
	top: "conv3_1"
	name: "conv3_1"
	param {
		lr_mult: 0.0
	}
	param {
		lr_mult: 0.0
	}
	type: "Convolution"
	convolution_param {
		num_output: 256
		pad: 1
		kernel_size: 3
	}
}

layer {
	bottom: "conv3_1"
	top: "conv3_1"
	name: "relu3_1"
	type: "ReLU"
}

layer {
	bottom: "conv3_1"
	top: "conv3_2"
	name: "conv3_2"
	param {
		lr_mult: 0.0
	}
	param {
		lr_mult: 0.0
	}
	type: "Convolution"
	convolution_param {
		num_output: 256
		pad: 1
		kernel_size: 3
	}
}

layer {
	bottom: "conv3_2"
	top: "conv3_2"
	name: "relu3_2"
	type: "ReLU"
}

layer {
	bottom: "conv3_2"
	top: "conv3_3"
	name: "conv3_3"
	param {
		lr_mult: 0.0
	}
	param {
		lr_mult: 0.0
	}
	type: "Convolution"
	convolution_param {
		num_output: 256
		pad: 1
		kernel_size: 3
	}
}

layer {
	bottom: "conv3_3"
	top: "conv3_3"
	name: "relu3_3"
	type: "ReLU"
}

layer {
	bottom: "conv3_3"
	top: "pool3"
	name: "pool3"
	type: "Pooling"
	pooling_param {
		pool: MAX
		kernel_size: 2
		stride: 2
	}
}

layer {
	bottom: "pool3"
	top: "conv4_1"
	name: "conv4_1"
	param {
		lr_mult: 0.0
	}
	param {
		lr_mult: 0.0
	}
	type: "Convolution"
	convolution_param {
		num_output: 512
		pad: 1
		kernel_size: 3
	}
}

layer {
	bottom: "conv4_1"
	top: "conv4_1"
	name: "relu4_1"
	type: "ReLU"
}

layer {
	bottom: "conv4_1"
	top: "conv4_2"
	name: "conv4_2"
	param {
		lr_mult: 0.0
	}
	param {
		lr_mult: 0.0
	}
	type: "Convolution"
	convolution_param {
		num_output: 512
		pad: 1
		kernel_size: 3
	}
}

layer {
	bottom: "conv4_2"
	top: "conv4_2"
	name: "relu4_2"
	type: "ReLU"
}

layer {
	bottom: "conv4_2"
	top: "conv4_3"
	name: "conv4_3"
	param {
		lr_mult: 0.0
	}
	param {
		lr_mult: 0.0
	}
	type: "Convolution"
	convolution_param {
		num_output: 512
		pad: 1
		kernel_size: 3
	}
}

layer {
	bottom: "conv4_3"
	top: "conv4_3"
	name: "relu4_3"
	type: "ReLU"
}

layer {
	bottom: "conv4_3"
	top: "pool4"
	name: "pool4"
	type: "Pooling"
	pooling_param {
		pool: MAX
		kernel_size: 2
		stride: 2
	}
}

layer {
	bottom: "pool4"
	top: "conv5_1"
	name: "conv5_1"
	param {
		lr_mult: 0.0
	}
	param {
		lr_mult: 0.0
	}
	type: "Convolution"
	convolution_param {
		num_output: 512
		pad: 1
		kernel_size: 3
	}
}

layer {
	bottom: "conv5_1"
	top: "conv5_1"
	name: "relu5_1"
	type: "ReLU"
}

layer {
	bottom: "conv5_1"
	top: "conv5_2"
	name: "conv5_2"
	param {
		lr_mult: 0.0
	}
	param {
		lr_mult: 0.0
	}
	type: "Convolution"
	convolution_param {
		num_output: 512
		pad: 1
		kernel_size: 3
	}
}

layer {
	bottom: "conv5_2"
	top: "conv5_2"
	name: "relu5_2"
	type: "ReLU"
}

layer {
	bottom: "conv5_2"
	top: "conv5_3"
	name: "conv5_3"
	param {
		lr_mult: 0.0
	}
	param {
		lr_mult: 0.0
	}
	type: "Convolution"
	convolution_param {
		num_output: 512
		pad: 1
		kernel_size: 3
	}
}

layer {
	bottom: "conv5_3"
	top: "conv5_3"
	name: "relu5_3"
	type: "ReLU"
}

#-----------------------layer +-------------------------
layer {
   name: "conv_proposal1"
   type: "Convolution"
   bottom: "conv5_3"
   top: "conv_proposal1"
	param {
		lr_mult: 1.0
	}
	param {
		lr_mult: 2.0
	}
   convolution_param{
	   num_output: 512
	   kernel_size: 3
	   pad: 1
	   stride: 1
	   weight_filler {
		 type: "gaussian"
		 std: 0.01
	   }
	   bias_filler {
		 type: "constant"
		 value: 0
	   }
   }
}

layer {
   name: "relu_proposal1"
   type: "ReLU"
   bottom: "conv_proposal1"
   top: "conv_proposal1"
}

layer {
   name: "proposal_cls_score"
   type: "Convolution"
   bottom: "conv_proposal1"
   top: "proposal_cls_score"
	param {
		lr_mult: 1.0
	}
	param {
		lr_mult: 2.0
	}
   convolution_param{
	   num_output: 18   # 2(bg/fg) * 9(anchors) 
	   kernel_size: 1
	   pad: 0
	   stride: 1
	   weight_filler {
		 type: "gaussian"
		 std: 0.01
	   }
	   bias_filler {
		 type: "constant"
		 value: 0
	   }
   }
}

layer {
   name: "proposal_bbox_pred"
   type: "Convolution"
   bottom: "conv_proposal1"
   top: "proposal_bbox_pred"
	param {
		lr_mult: 1.0
	}
	param {
		lr_mult: 2.0
	}
   convolution_param{
	   num_output: 36	# 4 * 9(anchors) 
	   kernel_size: 1
	   pad: 0
	   stride: 1
	   weight_filler {
		 type: "gaussian"
		 std: 0.01
	   }
	   bias_filler {
		 type: "constant"
		 value: 0
	   }
   }
}

#-----------------------output------------------------

# to enable the calculation of softmax loss, we first reshape blobs related to SoftmaxWithLoss
layer {
   bottom: "proposal_cls_score"
   top: "proposal_cls_score_reshape"
   name: "proposal_cls_score_reshape"
   type: "Reshape"
   reshape_param{
	   shape {
			dim: 0 
			dim: 2
			dim: -1 
			dim: 0
		}
	}
}

layer {
   name: "proposal_cls_prob"
   type: "Softmax"
   bottom: "proposal_cls_score_reshape"
   top: "proposal_cls_prob"
}